{"backend": "tensorflow", "config": {"output_layers": [["activation_51", 0, 0]], "layers": [{"config": {"batch_input_shape": [null, 240, 320, 3], "dtype": "float32", "name": "input_1", "sparse": false}, "inbound_nodes": [], "name": "input_1", "class_name": "InputLayer"}, {"config": {"padding": [[3, 3], [3, 3]], "trainable": true, "name": "zero_padding2d_1", "data_format": "channels_last"}, "inbound_nodes": [[["input_1", 0, 0, {}]]], "name": "zero_padding2d_1", "class_name": "ZeroPadding2D"}, {"config": {"bias_regularizer": null, "activity_regularizer": null, "bias_initializer": {"config": {}, "class_name": "Zeros"}, "kernel_regularizer": null, "bias_constraint": null, "trainable": true, "filters": 64, "activation": "linear", "strides": [2, 2], "data_format": "channels_last", "kernel_initializer": {"config": {"distribution": "uniform", "mode": "fan_avg", "scale": 1.0, "seed": null}, "class_name": "VarianceScaling"}, "name": "conv1", "kernel_constraint": null, "padding": "valid", "use_bias": true, "dilation_rate": [1, 1], "kernel_size": [7, 7]}, "inbound_nodes": [[["zero_padding2d_1", 0, 0, {}]]], "name": "conv1", "class_name": "Conv2D"}, {"config": {"beta_initializer": {"config": {}, "class_name": "Zeros"}, "epsilon": 0.001, "center": true, "scale": true, "gamma_initializer": {"config": {}, "class_name": "Ones"}, "momentum": 0.99, "axis": 3, "beta_constraint": null, "beta_regularizer": null, "name": "bn_conv1", "gamma_constraint": null, "moving_variance_initializer": {"config": {}, "class_name": "Ones"}, "gamma_regularizer": null, "trainable": true, "moving_mean_initializer": {"config": {}, "class_name": "Zeros"}}, "inbound_nodes": [[["conv1", 0, 0, {}]]], "name": "bn_conv1", "class_name": "BatchNormalization"}, {"config": {"trainable": true, "name": "activation_1", "activation": "relu"}, "inbound_nodes": [[["bn_conv1", 0, 0, {}]]], "name": "activation_1", "class_name": "Activation"}, {"config": {"strides": [2, 2], "data_format": "channels_last", "name": "max_pooling2d_1", "padding": "valid", "pool_size": [3, 3], "trainable": true}, "inbound_nodes": [[["activation_1", 0, 0, {}]]], "name": "max_pooling2d_1", "class_name": "MaxPooling2D"}, {"config": {"bias_regularizer": null, "activity_regularizer": null, "bias_initializer": {"config": {}, "class_name": "Zeros"}, "kernel_regularizer": null, "bias_constraint": null, "trainable": true, "filters": 64, "activation": "linear", "strides": [1, 1], "data_format": "channels_last", "kernel_initializer": {"config": {"distribution": "uniform", "mode": "fan_avg", "scale": 1.0, "seed": null}, "class_name": "VarianceScaling"}, "name": "res2a_branch2a", "kernel_constraint": null, "padding": "valid", "use_bias": true, "dilation_rate": [1, 1], "kernel_size": [1, 1]}, "inbound_nodes": [[["max_pooling2d_1", 0, 0, {}]]], "name": "res2a_branch2a", "class_name": "Conv2D"}, {"config": {"beta_initializer": {"config": {}, "class_name": "Zeros"}, "epsilon": 0.001, "center": true, "scale": true, "gamma_initializer": {"config": {}, "class_name": "Ones"}, "momentum": 0.99, "axis": 3, "beta_constraint": null, "beta_regularizer": null, "name": "bn2a_branch2a", "gamma_constraint": null, "moving_variance_initializer": {"config": {}, "class_name": "Ones"}, "gamma_regularizer": null, "trainable": true, "moving_mean_initializer": {"config": {}, "class_name": "Zeros"}}, "inbound_nodes": [[["res2a_branch2a", 0, 0, {}]]], "name": "bn2a_branch2a", "class_name": "BatchNormalization"}, {"config": {"trainable": true, "name": "activation_2", "activation": "relu"}, "inbound_nodes": [[["bn2a_branch2a", 0, 0, {}]]], "name": "activation_2", "class_name": "Activation"}, {"config": {"bias_regularizer": null, "activity_regularizer": null, "bias_initializer": {"config": {}, "class_name": "Zeros"}, "kernel_regularizer": null, "bias_constraint": null, "trainable": true, "filters": 64, "activation": "linear", "strides": [1, 1], "data_format": "channels_last", "kernel_initializer": {"config": {"distribution": "uniform", "mode": "fan_avg", "scale": 1.0, "seed": null}, "class_name": "VarianceScaling"}, "name": "res2a_branch2b", "kernel_constraint": null, "padding": "same", "use_bias": true, "dilation_rate": [1, 1], "kernel_size": [3, 3]}, "inbound_nodes": [[["activation_2", 0, 0, {}]]], "name": "res2a_branch2b", "class_name": "Conv2D"}, {"config": {"beta_initializer": {"config": {}, "class_name": "Zeros"}, "epsilon": 0.001, "center": true, "scale": true, "gamma_initializer": {"config": {}, "class_name": "Ones"}, "momentum": 0.99, "axis": 3, "beta_constraint": null, "beta_regularizer": null, "name": "bn2a_branch2b", "gamma_constraint": null, "moving_variance_initializer": {"config": {}, "class_name": "Ones"}, "gamma_regularizer": null, "trainable": true, "moving_mean_initializer": {"config": {}, "class_name": "Zeros"}}, "inbound_nodes": [[["res2a_branch2b", 0, 0, {}]]], "name": "bn2a_branch2b", "class_name": "BatchNormalization"}, {"config": {"trainable": true, "name": "activation_3", "activation": "relu"}, "inbound_nodes": [[["bn2a_branch2b", 0, 0, {}]]], "name": "activation_3", "class_name": "Activation"}, {"config": {"bias_regularizer": null, "activity_regularizer": null, "bias_initializer": {"config": {}, "class_name": "Zeros"}, "kernel_regularizer": null, "bias_constraint": null, "trainable": true, "filters": 256, "activation": "linear", "strides": [1, 1], "data_format": "channels_last", "kernel_initializer": {"config": {"distribution": "uniform", "mode": "fan_avg", "scale": 1.0, "seed": null}, "class_name": "VarianceScaling"}, "name": "res2a_branch2c", "kernel_constraint": null, "padding": "valid", "use_bias": true, "dilation_rate": [1, 1], "kernel_size": [1, 1]}, "inbound_nodes": [[["activation_3", 0, 0, {}]]], "name": "res2a_branch2c", "class_name": "Conv2D"}, {"config": {"bias_regularizer": null, "activity_regularizer": null, "bias_initializer": {"config": {}, "class_name": "Zeros"}, "kernel_regularizer": null, "bias_constraint": null, "trainable": true, "filters": 256, "activation": "linear", "strides": [1, 1], "data_format": "channels_last", "kernel_initializer": {"config": {"distribution": "uniform", "mode": "fan_avg", "scale": 1.0, "seed": null}, "class_name": "VarianceScaling"}, "name": "res2a_branch1", "kernel_constraint": null, "padding": "valid", "use_bias": true, "dilation_rate": [1, 1], "kernel_size": [1, 1]}, "inbound_nodes": [[["max_pooling2d_1", 0, 0, {}]]], "name": "res2a_branch1", "class_name": "Conv2D"}, {"config": {"beta_initializer": {"config": {}, "class_name": "Zeros"}, "epsilon": 0.001, "center": true, "scale": true, "gamma_initializer": {"config": {}, "class_name": "Ones"}, "momentum": 0.99, "axis": 3, "beta_constraint": null, "beta_regularizer": null, "name": "bn2a_branch2c", "gamma_constraint": null, "moving_variance_initializer": {"config": {}, "class_name": "Ones"}, "gamma_regularizer": null, "trainable": true, "moving_mean_initializer": {"config": {}, "class_name": "Zeros"}}, "inbound_nodes": [[["res2a_branch2c", 0, 0, {}]]], "name": "bn2a_branch2c", "class_name": "BatchNormalization"}, {"config": {"beta_initializer": {"config": {}, "class_name": "Zeros"}, "epsilon": 0.001, "center": true, "scale": true, "gamma_initializer": {"config": {}, "class_name": "Ones"}, "momentum": 0.99, "axis": 3, "beta_constraint": null, "beta_regularizer": null, "name": "bn2a_branch1", "gamma_constraint": null, "moving_variance_initializer": {"config": {}, "class_name": "Ones"}, "gamma_regularizer": null, "trainable": true, "moving_mean_initializer": {"config": {}, "class_name": "Zeros"}}, "inbound_nodes": [[["res2a_branch1", 0, 0, {}]]], "name": "bn2a_branch1", "class_name": "BatchNormalization"}, {"config": {"trainable": true, "name": "add_1"}, "inbound_nodes": [[["bn2a_branch2c", 0, 0, {}], ["bn2a_branch1", 0, 0, {}]]], "name": "add_1", "class_name": "Add"}, {"config": {"trainable": true, "name": "activation_4", "activation": "relu"}, "inbound_nodes": [[["add_1", 0, 0, {}]]], "name": "activation_4", "class_name": "Activation"}, {"config": {"bias_regularizer": null, "activity_regularizer": null, "bias_initializer": {"config": {}, "class_name": "Zeros"}, "kernel_regularizer": null, "bias_constraint": null, "trainable": true, "filters": 64, "activation": "linear", "strides": [1, 1], "data_format": "channels_last", "kernel_initializer": {"config": {"distribution": "uniform", "mode": "fan_avg", "scale": 1.0, "seed": null}, "class_name": "VarianceScaling"}, "name": "res2b_branch2a", "kernel_constraint": null, "padding": "valid", "use_bias": true, "dilation_rate": [1, 1], "kernel_size": [1, 1]}, "inbound_nodes": [[["activation_4", 0, 0, {}]]], "name": "res2b_branch2a", "class_name": "Conv2D"}, {"config": {"beta_initializer": {"config": {}, "class_name": "Zeros"}, "epsilon": 0.001, "center": true, "scale": true, "gamma_initializer": {"config": {}, "class_name": "Ones"}, "momentum": 0.99, "axis": 3, "beta_constraint": null, "beta_regularizer": null, "name": "bn2b_branch2a", "gamma_constraint": null, "moving_variance_initializer": {"config": {}, "class_name": "Ones"}, "gamma_regularizer": null, "trainable": true, "moving_mean_initializer": {"config": {}, "class_name": "Zeros"}}, "inbound_nodes": [[["res2b_branch2a", 0, 0, {}]]], "name": "bn2b_branch2a", "class_name": "BatchNormalization"}, {"config": {"trainable": true, "name": "activation_5", "activation": "relu"}, "inbound_nodes": [[["bn2b_branch2a", 0, 0, {}]]], "name": "activation_5", "class_name": "Activation"}, {"config": {"bias_regularizer": null, "activity_regularizer": null, "bias_initializer": {"config": {}, "class_name": "Zeros"}, "kernel_regularizer": null, "bias_constraint": null, "trainable": true, "filters": 64, "activation": "linear", "strides": [1, 1], "data_format": "channels_last", "kernel_initializer": {"config": {"distribution": "uniform", "mode": "fan_avg", "scale": 1.0, "seed": null}, "class_name": "VarianceScaling"}, "name": "res2b_branch2b", "kernel_constraint": null, "padding": "same", "use_bias": true, "dilation_rate": [1, 1], "kernel_size": [3, 3]}, "inbound_nodes": [[["activation_5", 0, 0, {}]]], "name": "res2b_branch2b", "class_name": "Conv2D"}, {"config": {"beta_initializer": {"config": {}, "class_name": "Zeros"}, "epsilon": 0.001, "center": true, "scale": true, "gamma_initializer": {"config": {}, "class_name": "Ones"}, "momentum": 0.99, "axis": 3, "beta_constraint": null, "beta_regularizer": null, "name": "bn2b_branch2b", "gamma_constraint": null, "moving_variance_initializer": {"config": {}, "class_name": "Ones"}, "gamma_regularizer": null, "trainable": true, "moving_mean_initializer": {"config": {}, "class_name": "Zeros"}}, "inbound_nodes": [[["res2b_branch2b", 0, 0, {}]]], "name": "bn2b_branch2b", "class_name": "BatchNormalization"}, {"config": {"trainable": true, "name": "activation_6", "activation": "relu"}, "inbound_nodes": [[["bn2b_branch2b", 0, 0, {}]]], "name": "activation_6", "class_name": "Activation"}, {"config": {"bias_regularizer": null, "activity_regularizer": null, "bias_initializer": {"config": {}, "class_name": "Zeros"}, "kernel_regularizer": null, "bias_constraint": null, "trainable": true, "filters": 256, "activation": "linear", "strides": [1, 1], "data_format": "channels_last", "kernel_initializer": {"config": {"distribution": "uniform", "mode": "fan_avg", "scale": 1.0, "seed": null}, "class_name": "VarianceScaling"}, "name": "res2b_branch2c", "kernel_constraint": null, "padding": "valid", "use_bias": true, "dilation_rate": [1, 1], "kernel_size": [1, 1]}, "inbound_nodes": [[["activation_6", 0, 0, {}]]], "name": "res2b_branch2c", "class_name": "Conv2D"}, {"config": {"beta_initializer": {"config": {}, "class_name": "Zeros"}, "epsilon": 0.001, "center": true, "scale": true, "gamma_initializer": {"config": {}, "class_name": "Ones"}, "momentum": 0.99, "axis": 3, "beta_constraint": null, "beta_regularizer": null, "name": "bn2b_branch2c", "gamma_constraint": null, "moving_variance_initializer": {"config": {}, "class_name": "Ones"}, "gamma_regularizer": null, "trainable": true, "moving_mean_initializer": {"config": {}, "class_name": "Zeros"}}, "inbound_nodes": [[["res2b_branch2c", 0, 0, {}]]], "name": "bn2b_branch2c", "class_name": "BatchNormalization"}, {"config": {"trainable": true, "name": "add_2"}, "inbound_nodes": [[["bn2b_branch2c", 0, 0, {}], ["activation_4", 0, 0, {}]]], "name": "add_2", "class_name": "Add"}, {"config": {"trainable": true, "name": "activation_7", "activation": "relu"}, "inbound_nodes": [[["add_2", 0, 0, {}]]], "name": "activation_7", "class_name": "Activation"}, {"config": {"bias_regularizer": null, "activity_regularizer": null, "bias_initializer": {"config": {}, "class_name": "Zeros"}, "kernel_regularizer": null, "bias_constraint": null, "trainable": true, "filters": 64, "activation": "linear", "strides": [1, 1], "data_format": "channels_last", "kernel_initializer": {"config": {"distribution": "uniform", "mode": "fan_avg", "scale": 1.0, "seed": null}, "class_name": "VarianceScaling"}, "name": "res2c_branch2a", "kernel_constraint": null, "padding": "valid", "use_bias": true, "dilation_rate": [1, 1], "kernel_size": [1, 1]}, "inbound_nodes": [[["activation_7", 0, 0, {}]]], "name": "res2c_branch2a", "class_name": "Conv2D"}, {"config": {"beta_initializer": {"config": {}, "class_name": "Zeros"}, "epsilon": 0.001, "center": true, "scale": true, "gamma_initializer": {"config": {}, "class_name": "Ones"}, "momentum": 0.99, "axis": 3, "beta_constraint": null, "beta_regularizer": null, "name": "bn2c_branch2a", "gamma_constraint": null, "moving_variance_initializer": {"config": {}, "class_name": "Ones"}, "gamma_regularizer": null, "trainable": true, "moving_mean_initializer": {"config": {}, "class_name": "Zeros"}}, "inbound_nodes": [[["res2c_branch2a", 0, 0, {}]]], "name": "bn2c_branch2a", "class_name": "BatchNormalization"}, {"config": {"trainable": true, "name": "activation_8", "activation": "relu"}, "inbound_nodes": [[["bn2c_branch2a", 0, 0, {}]]], "name": "activation_8", "class_name": "Activation"}, {"config": {"bias_regularizer": null, "activity_regularizer": null, "bias_initializer": {"config": {}, "class_name": "Zeros"}, "kernel_regularizer": null, "bias_constraint": null, "trainable": true, "filters": 64, "activation": "linear", "strides": [1, 1], "data_format": "channels_last", "kernel_initializer": {"config": {"distribution": "uniform", "mode": "fan_avg", "scale": 1.0, "seed": null}, "class_name": "VarianceScaling"}, "name": "res2c_branch2b", "kernel_constraint": null, "padding": "same", "use_bias": true, "dilation_rate": [1, 1], "kernel_size": [3, 3]}, "inbound_nodes": [[["activation_8", 0, 0, {}]]], "name": "res2c_branch2b", "class_name": "Conv2D"}, {"config": {"beta_initializer": {"config": {}, "class_name": "Zeros"}, "epsilon": 0.001, "center": true, "scale": true, "gamma_initializer": {"config": {}, "class_name": "Ones"}, "momentum": 0.99, "axis": 3, "beta_constraint": null, "beta_regularizer": null, "name": "bn2c_branch2b", "gamma_constraint": null, "moving_variance_initializer": {"config": {}, "class_name": "Ones"}, "gamma_regularizer": null, "trainable": true, "moving_mean_initializer": {"config": {}, "class_name": "Zeros"}}, "inbound_nodes": [[["res2c_branch2b", 0, 0, {}]]], "name": "bn2c_branch2b", "class_name": "BatchNormalization"}, {"config": {"trainable": true, "name": "activation_9", "activation": "relu"}, "inbound_nodes": [[["bn2c_branch2b", 0, 0, {}]]], "name": "activation_9", "class_name": "Activation"}, {"config": {"bias_regularizer": null, "activity_regularizer": null, "bias_initializer": {"config": {}, "class_name": "Zeros"}, "kernel_regularizer": null, "bias_constraint": null, "trainable": true, "filters": 256, "activation": "linear", "strides": [1, 1], "data_format": "channels_last", "kernel_initializer": {"config": {"distribution": "uniform", "mode": "fan_avg", "scale": 1.0, "seed": null}, "class_name": "VarianceScaling"}, "name": "res2c_branch2c", "kernel_constraint": null, "padding": "valid", "use_bias": true, "dilation_rate": [1, 1], "kernel_size": [1, 1]}, "inbound_nodes": [[["activation_9", 0, 0, {}]]], "name": "res2c_branch2c", "class_name": "Conv2D"}, {"config": {"beta_initializer": {"config": {}, "class_name": "Zeros"}, "epsilon": 0.001, "center": true, "scale": true, "gamma_initializer": {"config": {}, "class_name": "Ones"}, "momentum": 0.99, "axis": 3, "beta_constraint": null, "beta_regularizer": null, "name": "bn2c_branch2c", "gamma_constraint": null, "moving_variance_initializer": {"config": {}, "class_name": "Ones"}, "gamma_regularizer": null, "trainable": true, "moving_mean_initializer": {"config": {}, "class_name": "Zeros"}}, "inbound_nodes": [[["res2c_branch2c", 0, 0, {}]]], "name": "bn2c_branch2c", "class_name": "BatchNormalization"}, {"config": {"trainable": true, "name": "add_3"}, "inbound_nodes": [[["bn2c_branch2c", 0, 0, {}], ["activation_7", 0, 0, {}]]], "name": "add_3", "class_name": "Add"}, {"config": {"trainable": true, "name": "activation_10", "activation": "relu"}, "inbound_nodes": [[["add_3", 0, 0, {}]]], "name": "activation_10", "class_name": "Activation"}, {"config": {"bias_regularizer": null, "activity_regularizer": null, "bias_initializer": {"config": {}, "class_name": "Zeros"}, "kernel_regularizer": null, "bias_constraint": null, "trainable": true, "filters": 128, "activation": "linear", "strides": [2, 2], "data_format": "channels_last", "kernel_initializer": {"config": {"distribution": "uniform", "mode": "fan_avg", "scale": 1.0, "seed": null}, "class_name": "VarianceScaling"}, "name": "res3a_branch2a", "kernel_constraint": null, "padding": "valid", "use_bias": true, "dilation_rate": [1, 1], "kernel_size": [1, 1]}, "inbound_nodes": [[["activation_10", 0, 0, {}]]], "name": "res3a_branch2a", "class_name": "Conv2D"}, {"config": {"beta_initializer": {"config": {}, "class_name": "Zeros"}, "epsilon": 0.001, "center": true, "scale": true, "gamma_initializer": {"config": {}, "class_name": "Ones"}, "momentum": 0.99, "axis": 3, "beta_constraint": null, "beta_regularizer": null, "name": "bn3a_branch2a", "gamma_constraint": null, "moving_variance_initializer": {"config": {}, "class_name": "Ones"}, "gamma_regularizer": null, "trainable": true, "moving_mean_initializer": {"config": {}, "class_name": "Zeros"}}, "inbound_nodes": [[["res3a_branch2a", 0, 0, {}]]], "name": "bn3a_branch2a", "class_name": "BatchNormalization"}, {"config": {"trainable": true, "name": "activation_11", "activation": "relu"}, "inbound_nodes": [[["bn3a_branch2a", 0, 0, {}]]], "name": "activation_11", "class_name": "Activation"}, {"config": {"bias_regularizer": null, "activity_regularizer": null, "bias_initializer": {"config": {}, "class_name": "Zeros"}, "kernel_regularizer": null, "bias_constraint": null, "trainable": true, "filters": 128, "activation": "linear", "strides": [1, 1], "data_format": "channels_last", "kernel_initializer": {"config": {"distribution": "uniform", "mode": "fan_avg", "scale": 1.0, "seed": null}, "class_name": "VarianceScaling"}, "name": "res3a_branch2b", "kernel_constraint": null, "padding": "same", "use_bias": true, "dilation_rate": [1, 1], "kernel_size": [3, 3]}, "inbound_nodes": [[["activation_11", 0, 0, {}]]], "name": "res3a_branch2b", "class_name": "Conv2D"}, {"config": {"beta_initializer": {"config": {}, "class_name": "Zeros"}, "epsilon": 0.001, "center": true, "scale": true, "gamma_initializer": {"config": {}, "class_name": "Ones"}, "momentum": 0.99, "axis": 3, "beta_constraint": null, "beta_regularizer": null, "name": "bn3a_branch2b", "gamma_constraint": null, "moving_variance_initializer": {"config": {}, "class_name": "Ones"}, "gamma_regularizer": null, "trainable": true, "moving_mean_initializer": {"config": {}, "class_name": "Zeros"}}, "inbound_nodes": [[["res3a_branch2b", 0, 0, {}]]], "name": "bn3a_branch2b", "class_name": "BatchNormalization"}, {"config": {"trainable": true, "name": "activation_12", "activation": "relu"}, "inbound_nodes": [[["bn3a_branch2b", 0, 0, {}]]], "name": "activation_12", "class_name": "Activation"}, {"config": {"bias_regularizer": null, "activity_regularizer": null, "bias_initializer": {"config": {}, "class_name": "Zeros"}, "kernel_regularizer": null, "bias_constraint": null, "trainable": true, "filters": 512, "activation": "linear", "strides": [1, 1], "data_format": "channels_last", "kernel_initializer": {"config": {"distribution": "uniform", "mode": "fan_avg", "scale": 1.0, "seed": null}, "class_name": "VarianceScaling"}, "name": "res3a_branch2c", "kernel_constraint": null, "padding": "valid", "use_bias": true, "dilation_rate": [1, 1], "kernel_size": [1, 1]}, "inbound_nodes": [[["activation_12", 0, 0, {}]]], "name": "res3a_branch2c", "class_name": "Conv2D"}, {"config": {"bias_regularizer": null, "activity_regularizer": null, "bias_initializer": {"config": {}, "class_name": "Zeros"}, "kernel_regularizer": null, "bias_constraint": null, "trainable": true, "filters": 512, "activation": "linear", "strides": [2, 2], "data_format": "channels_last", "kernel_initializer": {"config": {"distribution": "uniform", "mode": "fan_avg", "scale": 1.0, "seed": null}, "class_name": "VarianceScaling"}, "name": "res3a_branch1", "kernel_constraint": null, "padding": "valid", "use_bias": true, "dilation_rate": [1, 1], "kernel_size": [1, 1]}, "inbound_nodes": [[["activation_10", 0, 0, {}]]], "name": "res3a_branch1", "class_name": "Conv2D"}, {"config": {"beta_initializer": {"config": {}, "class_name": "Zeros"}, "epsilon": 0.001, "center": true, "scale": true, "gamma_initializer": {"config": {}, "class_name": "Ones"}, "momentum": 0.99, "axis": 3, "beta_constraint": null, "beta_regularizer": null, "name": "bn3a_branch2c", "gamma_constraint": null, "moving_variance_initializer": {"config": {}, "class_name": "Ones"}, "gamma_regularizer": null, "trainable": true, "moving_mean_initializer": {"config": {}, "class_name": "Zeros"}}, "inbound_nodes": [[["res3a_branch2c", 0, 0, {}]]], "name": "bn3a_branch2c", "class_name": "BatchNormalization"}, {"config": {"beta_initializer": {"config": {}, "class_name": "Zeros"}, "epsilon": 0.001, "center": true, "scale": true, "gamma_initializer": {"config": {}, "class_name": "Ones"}, "momentum": 0.99, "axis": 3, "beta_constraint": null, "beta_regularizer": null, "name": "bn3a_branch1", "gamma_constraint": null, "moving_variance_initializer": {"config": {}, "class_name": "Ones"}, "gamma_regularizer": null, "trainable": true, "moving_mean_initializer": {"config": {}, "class_name": "Zeros"}}, "inbound_nodes": [[["res3a_branch1", 0, 0, {}]]], "name": "bn3a_branch1", "class_name": "BatchNormalization"}, {"config": {"trainable": true, "name": "add_4"}, "inbound_nodes": [[["bn3a_branch2c", 0, 0, {}], ["bn3a_branch1", 0, 0, {}]]], "name": "add_4", "class_name": "Add"}, {"config": {"trainable": true, "name": "activation_13", "activation": "relu"}, "inbound_nodes": [[["add_4", 0, 0, {}]]], "name": "activation_13", "class_name": "Activation"}, {"config": {"bias_regularizer": null, "activity_regularizer": null, "bias_initializer": {"config": {}, "class_name": "Zeros"}, "kernel_regularizer": null, "bias_constraint": null, "trainable": true, "filters": 128, "activation": "linear", "strides": [1, 1], "data_format": "channels_last", "kernel_initializer": {"config": {"distribution": "uniform", "mode": "fan_avg", "scale": 1.0, "seed": null}, "class_name": "VarianceScaling"}, "name": "res3b_branch2a", "kernel_constraint": null, "padding": "valid", "use_bias": true, "dilation_rate": [1, 1], "kernel_size": [1, 1]}, "inbound_nodes": [[["activation_13", 0, 0, {}]]], "name": "res3b_branch2a", "class_name": "Conv2D"}, {"config": {"beta_initializer": {"config": {}, "class_name": "Zeros"}, "epsilon": 0.001, "center": true, "scale": true, "gamma_initializer": {"config": {}, "class_name": "Ones"}, "momentum": 0.99, "axis": 3, "beta_constraint": null, "beta_regularizer": null, "name": "bn3b_branch2a", "gamma_constraint": null, "moving_variance_initializer": {"config": {}, "class_name": "Ones"}, "gamma_regularizer": null, "trainable": true, "moving_mean_initializer": {"config": {}, "class_name": "Zeros"}}, "inbound_nodes": [[["res3b_branch2a", 0, 0, {}]]], "name": "bn3b_branch2a", "class_name": "BatchNormalization"}, {"config": {"trainable": true, "name": "activation_14", "activation": "relu"}, "inbound_nodes": [[["bn3b_branch2a", 0, 0, {}]]], "name": "activation_14", "class_name": "Activation"}, {"config": {"bias_regularizer": null, "activity_regularizer": null, "bias_initializer": {"config": {}, "class_name": "Zeros"}, "kernel_regularizer": null, "bias_constraint": null, "trainable": true, "filters": 128, "activation": "linear", "strides": [1, 1], "data_format": "channels_last", "kernel_initializer": {"config": {"distribution": "uniform", "mode": "fan_avg", "scale": 1.0, "seed": null}, "class_name": "VarianceScaling"}, "name": "res3b_branch2b", "kernel_constraint": null, "padding": "same", "use_bias": true, "dilation_rate": [1, 1], "kernel_size": [3, 3]}, "inbound_nodes": [[["activation_14", 0, 0, {}]]], "name": "res3b_branch2b", "class_name": "Conv2D"}, {"config": {"beta_initializer": {"config": {}, "class_name": "Zeros"}, "epsilon": 0.001, "center": true, "scale": true, "gamma_initializer": {"config": {}, "class_name": "Ones"}, "momentum": 0.99, "axis": 3, "beta_constraint": null, "beta_regularizer": null, "name": "bn3b_branch2b", "gamma_constraint": null, "moving_variance_initializer": {"config": {}, "class_name": "Ones"}, "gamma_regularizer": null, "trainable": true, "moving_mean_initializer": {"config": {}, "class_name": "Zeros"}}, "inbound_nodes": [[["res3b_branch2b", 0, 0, {}]]], "name": "bn3b_branch2b", "class_name": "BatchNormalization"}, {"config": {"trainable": true, "name": "activation_15", "activation": "relu"}, "inbound_nodes": [[["bn3b_branch2b", 0, 0, {}]]], "name": "activation_15", "class_name": "Activation"}, {"config": {"bias_regularizer": null, "activity_regularizer": null, "bias_initializer": {"config": {}, "class_name": "Zeros"}, "kernel_regularizer": null, "bias_constraint": null, "trainable": true, "filters": 512, "activation": "linear", "strides": [1, 1], "data_format": "channels_last", "kernel_initializer": {"config": {"distribution": "uniform", "mode": "fan_avg", "scale": 1.0, "seed": null}, "class_name": "VarianceScaling"}, "name": "res3b_branch2c", "kernel_constraint": null, "padding": "valid", "use_bias": true, "dilation_rate": [1, 1], "kernel_size": [1, 1]}, "inbound_nodes": [[["activation_15", 0, 0, {}]]], "name": "res3b_branch2c", "class_name": "Conv2D"}, {"config": {"beta_initializer": {"config": {}, "class_name": "Zeros"}, "epsilon": 0.001, "center": true, "scale": true, "gamma_initializer": {"config": {}, "class_name": "Ones"}, "momentum": 0.99, "axis": 3, "beta_constraint": null, "beta_regularizer": null, "name": "bn3b_branch2c", "gamma_constraint": null, "moving_variance_initializer": {"config": {}, "class_name": "Ones"}, "gamma_regularizer": null, "trainable": true, "moving_mean_initializer": {"config": {}, "class_name": "Zeros"}}, "inbound_nodes": [[["res3b_branch2c", 0, 0, {}]]], "name": "bn3b_branch2c", "class_name": "BatchNormalization"}, {"config": {"trainable": true, "name": "add_5"}, "inbound_nodes": [[["bn3b_branch2c", 0, 0, {}], ["activation_13", 0, 0, {}]]], "name": "add_5", "class_name": "Add"}, {"config": {"trainable": true, "name": "activation_16", "activation": "relu"}, "inbound_nodes": [[["add_5", 0, 0, {}]]], "name": "activation_16", "class_name": "Activation"}, {"config": {"bias_regularizer": null, "activity_regularizer": null, "bias_initializer": {"config": {}, "class_name": "Zeros"}, "kernel_regularizer": null, "bias_constraint": null, "trainable": true, "filters": 128, "activation": "linear", "strides": [1, 1], "data_format": "channels_last", "kernel_initializer": {"config": {"distribution": "uniform", "mode": "fan_avg", "scale": 1.0, "seed": null}, "class_name": "VarianceScaling"}, "name": "res3c_branch2a", "kernel_constraint": null, "padding": "valid", "use_bias": true, "dilation_rate": [1, 1], "kernel_size": [1, 1]}, "inbound_nodes": [[["activation_16", 0, 0, {}]]], "name": "res3c_branch2a", "class_name": "Conv2D"}, {"config": {"beta_initializer": {"config": {}, "class_name": "Zeros"}, "epsilon": 0.001, "center": true, "scale": true, "gamma_initializer": {"config": {}, "class_name": "Ones"}, "momentum": 0.99, "axis": 3, "beta_constraint": null, "beta_regularizer": null, "name": "bn3c_branch2a", "gamma_constraint": null, "moving_variance_initializer": {"config": {}, "class_name": "Ones"}, "gamma_regularizer": null, "trainable": true, "moving_mean_initializer": {"config": {}, "class_name": "Zeros"}}, "inbound_nodes": [[["res3c_branch2a", 0, 0, {}]]], "name": "bn3c_branch2a", "class_name": "BatchNormalization"}, {"config": {"trainable": true, "name": "activation_17", "activation": "relu"}, "inbound_nodes": [[["bn3c_branch2a", 0, 0, {}]]], "name": "activation_17", "class_name": "Activation"}, {"config": {"bias_regularizer": null, "activity_regularizer": null, "bias_initializer": {"config": {}, "class_name": "Zeros"}, "kernel_regularizer": null, "bias_constraint": null, "trainable": true, "filters": 128, "activation": "linear", "strides": [1, 1], "data_format": "channels_last", "kernel_initializer": {"config": {"distribution": "uniform", "mode": "fan_avg", "scale": 1.0, "seed": null}, "class_name": "VarianceScaling"}, "name": "res3c_branch2b", "kernel_constraint": null, "padding": "same", "use_bias": true, "dilation_rate": [1, 1], "kernel_size": [3, 3]}, "inbound_nodes": [[["activation_17", 0, 0, {}]]], "name": "res3c_branch2b", "class_name": "Conv2D"}, {"config": {"beta_initializer": {"config": {}, "class_name": "Zeros"}, "epsilon": 0.001, "center": true, "scale": true, "gamma_initializer": {"config": {}, "class_name": "Ones"}, "momentum": 0.99, "axis": 3, "beta_constraint": null, "beta_regularizer": null, "name": "bn3c_branch2b", "gamma_constraint": null, "moving_variance_initializer": {"config": {}, "class_name": "Ones"}, "gamma_regularizer": null, "trainable": true, "moving_mean_initializer": {"config": {}, "class_name": "Zeros"}}, "inbound_nodes": [[["res3c_branch2b", 0, 0, {}]]], "name": "bn3c_branch2b", "class_name": "BatchNormalization"}, {"config": {"trainable": true, "name": "activation_18", "activation": "relu"}, "inbound_nodes": [[["bn3c_branch2b", 0, 0, {}]]], "name": "activation_18", "class_name": "Activation"}, {"config": {"bias_regularizer": null, "activity_regularizer": null, "bias_initializer": {"config": {}, "class_name": "Zeros"}, "kernel_regularizer": null, "bias_constraint": null, "trainable": true, "filters": 512, "activation": "linear", "strides": [1, 1], "data_format": "channels_last", "kernel_initializer": {"config": {"distribution": "uniform", "mode": "fan_avg", "scale": 1.0, "seed": null}, "class_name": "VarianceScaling"}, "name": "res3c_branch2c", "kernel_constraint": null, "padding": "valid", "use_bias": true, "dilation_rate": [1, 1], "kernel_size": [1, 1]}, "inbound_nodes": [[["activation_18", 0, 0, {}]]], "name": "res3c_branch2c", "class_name": "Conv2D"}, {"config": {"beta_initializer": {"config": {}, "class_name": "Zeros"}, "epsilon": 0.001, "center": true, "scale": true, "gamma_initializer": {"config": {}, "class_name": "Ones"}, "momentum": 0.99, "axis": 3, "beta_constraint": null, "beta_regularizer": null, "name": "bn3c_branch2c", "gamma_constraint": null, "moving_variance_initializer": {"config": {}, "class_name": "Ones"}, "gamma_regularizer": null, "trainable": true, "moving_mean_initializer": {"config": {}, "class_name": "Zeros"}}, "inbound_nodes": [[["res3c_branch2c", 0, 0, {}]]], "name": "bn3c_branch2c", "class_name": "BatchNormalization"}, {"config": {"trainable": true, "name": "add_6"}, "inbound_nodes": [[["bn3c_branch2c", 0, 0, {}], ["activation_16", 0, 0, {}]]], "name": "add_6", "class_name": "Add"}, {"config": {"trainable": true, "name": "activation_19", "activation": "relu"}, "inbound_nodes": [[["add_6", 0, 0, {}]]], "name": "activation_19", "class_name": "Activation"}, {"config": {"bias_regularizer": null, "activity_regularizer": null, "bias_initializer": {"config": {}, "class_name": "Zeros"}, "kernel_regularizer": null, "bias_constraint": null, "trainable": true, "filters": 128, "activation": "linear", "strides": [1, 1], "data_format": "channels_last", "kernel_initializer": {"config": {"distribution": "uniform", "mode": "fan_avg", "scale": 1.0, "seed": null}, "class_name": "VarianceScaling"}, "name": "res3d_branch2a", "kernel_constraint": null, "padding": "valid", "use_bias": true, "dilation_rate": [1, 1], "kernel_size": [1, 1]}, "inbound_nodes": [[["activation_19", 0, 0, {}]]], "name": "res3d_branch2a", "class_name": "Conv2D"}, {"config": {"beta_initializer": {"config": {}, "class_name": "Zeros"}, "epsilon": 0.001, "center": true, "scale": true, "gamma_initializer": {"config": {}, "class_name": "Ones"}, "momentum": 0.99, "axis": 3, "beta_constraint": null, "beta_regularizer": null, "name": "bn3d_branch2a", "gamma_constraint": null, "moving_variance_initializer": {"config": {}, "class_name": "Ones"}, "gamma_regularizer": null, "trainable": true, "moving_mean_initializer": {"config": {}, "class_name": "Zeros"}}, "inbound_nodes": [[["res3d_branch2a", 0, 0, {}]]], "name": "bn3d_branch2a", "class_name": "BatchNormalization"}, {"config": {"trainable": true, "name": "activation_20", "activation": "relu"}, "inbound_nodes": [[["bn3d_branch2a", 0, 0, {}]]], "name": "activation_20", "class_name": "Activation"}, {"config": {"bias_regularizer": null, "activity_regularizer": null, "bias_initializer": {"config": {}, "class_name": "Zeros"}, "kernel_regularizer": null, "bias_constraint": null, "trainable": true, "filters": 128, "activation": "linear", "strides": [1, 1], "data_format": "channels_last", "kernel_initializer": {"config": {"distribution": "uniform", "mode": "fan_avg", "scale": 1.0, "seed": null}, "class_name": "VarianceScaling"}, "name": "res3d_branch2b", "kernel_constraint": null, "padding": "same", "use_bias": true, "dilation_rate": [1, 1], "kernel_size": [3, 3]}, "inbound_nodes": [[["activation_20", 0, 0, {}]]], "name": "res3d_branch2b", "class_name": "Conv2D"}, {"config": {"beta_initializer": {"config": {}, "class_name": "Zeros"}, "epsilon": 0.001, "center": true, "scale": true, "gamma_initializer": {"config": {}, "class_name": "Ones"}, "momentum": 0.99, "axis": 3, "beta_constraint": null, "beta_regularizer": null, "name": "bn3d_branch2b", "gamma_constraint": null, "moving_variance_initializer": {"config": {}, "class_name": "Ones"}, "gamma_regularizer": null, "trainable": true, "moving_mean_initializer": {"config": {}, "class_name": "Zeros"}}, "inbound_nodes": [[["res3d_branch2b", 0, 0, {}]]], "name": "bn3d_branch2b", "class_name": "BatchNormalization"}, {"config": {"trainable": true, "name": "activation_21", "activation": "relu"}, "inbound_nodes": [[["bn3d_branch2b", 0, 0, {}]]], "name": "activation_21", "class_name": "Activation"}, {"config": {"bias_regularizer": null, "activity_regularizer": null, "bias_initializer": {"config": {}, "class_name": "Zeros"}, "kernel_regularizer": null, "bias_constraint": null, "trainable": true, "filters": 512, "activation": "linear", "strides": [1, 1], "data_format": "channels_last", "kernel_initializer": {"config": {"distribution": "uniform", "mode": "fan_avg", "scale": 1.0, "seed": null}, "class_name": "VarianceScaling"}, "name": "res3d_branch2c", "kernel_constraint": null, "padding": "valid", "use_bias": true, "dilation_rate": [1, 1], "kernel_size": [1, 1]}, "inbound_nodes": [[["activation_21", 0, 0, {}]]], "name": "res3d_branch2c", "class_name": "Conv2D"}, {"config": {"beta_initializer": {"config": {}, "class_name": "Zeros"}, "epsilon": 0.001, "center": true, "scale": true, "gamma_initializer": {"config": {}, "class_name": "Ones"}, "momentum": 0.99, "axis": 3, "beta_constraint": null, "beta_regularizer": null, "name": "bn3d_branch2c", "gamma_constraint": null, "moving_variance_initializer": {"config": {}, "class_name": "Ones"}, "gamma_regularizer": null, "trainable": true, "moving_mean_initializer": {"config": {}, "class_name": "Zeros"}}, "inbound_nodes": [[["res3d_branch2c", 0, 0, {}]]], "name": "bn3d_branch2c", "class_name": "BatchNormalization"}, {"config": {"trainable": true, "name": "add_7"}, "inbound_nodes": [[["bn3d_branch2c", 0, 0, {}], ["activation_19", 0, 0, {}]]], "name": "add_7", "class_name": "Add"}, {"config": {"trainable": true, "name": "activation_22", "activation": "relu"}, "inbound_nodes": [[["add_7", 0, 0, {}]]], "name": "activation_22", "class_name": "Activation"}, {"config": {"bias_regularizer": null, "activity_regularizer": null, "bias_initializer": {"config": {}, "class_name": "Zeros"}, "kernel_regularizer": null, "bias_constraint": null, "trainable": true, "filters": 256, "activation": "linear", "strides": [2, 2], "data_format": "channels_last", "kernel_initializer": {"config": {"distribution": "uniform", "mode": "fan_avg", "scale": 1.0, "seed": null}, "class_name": "VarianceScaling"}, "name": "res4a_branch2a", "kernel_constraint": null, "padding": "valid", "use_bias": true, "dilation_rate": [1, 1], "kernel_size": [1, 1]}, "inbound_nodes": [[["activation_22", 0, 0, {}]]], "name": "res4a_branch2a", "class_name": "Conv2D"}, {"config": {"beta_initializer": {"config": {}, "class_name": "Zeros"}, "epsilon": 0.001, "center": true, "scale": true, "gamma_initializer": {"config": {}, "class_name": "Ones"}, "momentum": 0.99, "axis": 3, "beta_constraint": null, "beta_regularizer": null, "name": "bn4a_branch2a", "gamma_constraint": null, "moving_variance_initializer": {"config": {}, "class_name": "Ones"}, "gamma_regularizer": null, "trainable": true, "moving_mean_initializer": {"config": {}, "class_name": "Zeros"}}, "inbound_nodes": [[["res4a_branch2a", 0, 0, {}]]], "name": "bn4a_branch2a", "class_name": "BatchNormalization"}, {"config": {"trainable": true, "name": "activation_23", "activation": "relu"}, "inbound_nodes": [[["bn4a_branch2a", 0, 0, {}]]], "name": "activation_23", "class_name": "Activation"}, {"config": {"bias_regularizer": null, "activity_regularizer": null, "bias_initializer": {"config": {}, "class_name": "Zeros"}, "kernel_regularizer": null, "bias_constraint": null, "trainable": true, "filters": 256, "activation": "linear", "strides": [1, 1], "data_format": "channels_last", "kernel_initializer": {"config": {"distribution": "uniform", "mode": "fan_avg", "scale": 1.0, "seed": null}, "class_name": "VarianceScaling"}, "name": "res4a_branch2b", "kernel_constraint": null, "padding": "same", "use_bias": true, "dilation_rate": [1, 1], "kernel_size": [3, 3]}, "inbound_nodes": [[["activation_23", 0, 0, {}]]], "name": "res4a_branch2b", "class_name": "Conv2D"}, {"config": {"beta_initializer": {"config": {}, "class_name": "Zeros"}, "epsilon": 0.001, "center": true, "scale": true, "gamma_initializer": {"config": {}, "class_name": "Ones"}, "momentum": 0.99, "axis": 3, "beta_constraint": null, "beta_regularizer": null, "name": "bn4a_branch2b", "gamma_constraint": null, "moving_variance_initializer": {"config": {}, "class_name": "Ones"}, "gamma_regularizer": null, "trainable": true, "moving_mean_initializer": {"config": {}, "class_name": "Zeros"}}, "inbound_nodes": [[["res4a_branch2b", 0, 0, {}]]], "name": "bn4a_branch2b", "class_name": "BatchNormalization"}, {"config": {"trainable": true, "name": "activation_24", "activation": "relu"}, "inbound_nodes": [[["bn4a_branch2b", 0, 0, {}]]], "name": "activation_24", "class_name": "Activation"}, {"config": {"bias_regularizer": null, "activity_regularizer": null, "bias_initializer": {"config": {}, "class_name": "Zeros"}, "kernel_regularizer": null, "bias_constraint": null, "trainable": true, "filters": 1024, "activation": "linear", "strides": [1, 1], "data_format": "channels_last", "kernel_initializer": {"config": {"distribution": "uniform", "mode": "fan_avg", "scale": 1.0, "seed": null}, "class_name": "VarianceScaling"}, "name": "res4a_branch2c", "kernel_constraint": null, "padding": "valid", "use_bias": true, "dilation_rate": [1, 1], "kernel_size": [1, 1]}, "inbound_nodes": [[["activation_24", 0, 0, {}]]], "name": "res4a_branch2c", "class_name": "Conv2D"}, {"config": {"bias_regularizer": null, "activity_regularizer": null, "bias_initializer": {"config": {}, "class_name": "Zeros"}, "kernel_regularizer": null, "bias_constraint": null, "trainable": true, "filters": 1024, "activation": "linear", "strides": [2, 2], "data_format": "channels_last", "kernel_initializer": {"config": {"distribution": "uniform", "mode": "fan_avg", "scale": 1.0, "seed": null}, "class_name": "VarianceScaling"}, "name": "res4a_branch1", "kernel_constraint": null, "padding": "valid", "use_bias": true, "dilation_rate": [1, 1], "kernel_size": [1, 1]}, "inbound_nodes": [[["activation_22", 0, 0, {}]]], "name": "res4a_branch1", "class_name": "Conv2D"}, {"config": {"beta_initializer": {"config": {}, "class_name": "Zeros"}, "epsilon": 0.001, "center": true, "scale": true, "gamma_initializer": {"config": {}, "class_name": "Ones"}, "momentum": 0.99, "axis": 3, "beta_constraint": null, "beta_regularizer": null, "name": "bn4a_branch2c", "gamma_constraint": null, "moving_variance_initializer": {"config": {}, "class_name": "Ones"}, "gamma_regularizer": null, "trainable": true, "moving_mean_initializer": {"config": {}, "class_name": "Zeros"}}, "inbound_nodes": [[["res4a_branch2c", 0, 0, {}]]], "name": "bn4a_branch2c", "class_name": "BatchNormalization"}, {"config": {"beta_initializer": {"config": {}, "class_name": "Zeros"}, "epsilon": 0.001, "center": true, "scale": true, "gamma_initializer": {"config": {}, "class_name": "Ones"}, "momentum": 0.99, "axis": 3, "beta_constraint": null, "beta_regularizer": null, "name": "bn4a_branch1", "gamma_constraint": null, "moving_variance_initializer": {"config": {}, "class_name": "Ones"}, "gamma_regularizer": null, "trainable": true, "moving_mean_initializer": {"config": {}, "class_name": "Zeros"}}, "inbound_nodes": [[["res4a_branch1", 0, 0, {}]]], "name": "bn4a_branch1", "class_name": "BatchNormalization"}, {"config": {"trainable": true, "name": "add_8"}, "inbound_nodes": [[["bn4a_branch2c", 0, 0, {}], ["bn4a_branch1", 0, 0, {}]]], "name": "add_8", "class_name": "Add"}, {"config": {"trainable": true, "name": "activation_25", "activation": "relu"}, "inbound_nodes": [[["add_8", 0, 0, {}]]], "name": "activation_25", "class_name": "Activation"}, {"config": {"bias_regularizer": null, "activity_regularizer": null, "bias_initializer": {"config": {}, "class_name": "Zeros"}, "kernel_regularizer": null, "bias_constraint": null, "trainable": true, "filters": 256, "activation": "linear", "strides": [1, 1], "data_format": "channels_last", "kernel_initializer": {"config": {"distribution": "uniform", "mode": "fan_avg", "scale": 1.0, "seed": null}, "class_name": "VarianceScaling"}, "name": "res4b_branch2a", "kernel_constraint": null, "padding": "valid", "use_bias": true, "dilation_rate": [1, 1], "kernel_size": [1, 1]}, "inbound_nodes": [[["activation_25", 0, 0, {}]]], "name": "res4b_branch2a", "class_name": "Conv2D"}, {"config": {"beta_initializer": {"config": {}, "class_name": "Zeros"}, "epsilon": 0.001, "center": true, "scale": true, "gamma_initializer": {"config": {}, "class_name": "Ones"}, "momentum": 0.99, "axis": 3, "beta_constraint": null, "beta_regularizer": null, "name": "bn4b_branch2a", "gamma_constraint": null, "moving_variance_initializer": {"config": {}, "class_name": "Ones"}, "gamma_regularizer": null, "trainable": true, "moving_mean_initializer": {"config": {}, "class_name": "Zeros"}}, "inbound_nodes": [[["res4b_branch2a", 0, 0, {}]]], "name": "bn4b_branch2a", "class_name": "BatchNormalization"}, {"config": {"trainable": true, "name": "activation_26", "activation": "relu"}, "inbound_nodes": [[["bn4b_branch2a", 0, 0, {}]]], "name": "activation_26", "class_name": "Activation"}, {"config": {"bias_regularizer": null, "activity_regularizer": null, "bias_initializer": {"config": {}, "class_name": "Zeros"}, "kernel_regularizer": null, "bias_constraint": null, "trainable": true, "filters": 256, "activation": "linear", "strides": [1, 1], "data_format": "channels_last", "kernel_initializer": {"config": {"distribution": "uniform", "mode": "fan_avg", "scale": 1.0, "seed": null}, "class_name": "VarianceScaling"}, "name": "res4b_branch2b", "kernel_constraint": null, "padding": "same", "use_bias": true, "dilation_rate": [1, 1], "kernel_size": [3, 3]}, "inbound_nodes": [[["activation_26", 0, 0, {}]]], "name": "res4b_branch2b", "class_name": "Conv2D"}, {"config": {"beta_initializer": {"config": {}, "class_name": "Zeros"}, "epsilon": 0.001, "center": true, "scale": true, "gamma_initializer": {"config": {}, "class_name": "Ones"}, "momentum": 0.99, "axis": 3, "beta_constraint": null, "beta_regularizer": null, "name": "bn4b_branch2b", "gamma_constraint": null, "moving_variance_initializer": {"config": {}, "class_name": "Ones"}, "gamma_regularizer": null, "trainable": true, "moving_mean_initializer": {"config": {}, "class_name": "Zeros"}}, "inbound_nodes": [[["res4b_branch2b", 0, 0, {}]]], "name": "bn4b_branch2b", "class_name": "BatchNormalization"}, {"config": {"trainable": true, "name": "activation_27", "activation": "relu"}, "inbound_nodes": [[["bn4b_branch2b", 0, 0, {}]]], "name": "activation_27", "class_name": "Activation"}, {"config": {"bias_regularizer": null, "activity_regularizer": null, "bias_initializer": {"config": {}, "class_name": "Zeros"}, "kernel_regularizer": null, "bias_constraint": null, "trainable": true, "filters": 1024, "activation": "linear", "strides": [1, 1], "data_format": "channels_last", "kernel_initializer": {"config": {"distribution": "uniform", "mode": "fan_avg", "scale": 1.0, "seed": null}, "class_name": "VarianceScaling"}, "name": "res4b_branch2c", "kernel_constraint": null, "padding": "valid", "use_bias": true, "dilation_rate": [1, 1], "kernel_size": [1, 1]}, "inbound_nodes": [[["activation_27", 0, 0, {}]]], "name": "res4b_branch2c", "class_name": "Conv2D"}, {"config": {"beta_initializer": {"config": {}, "class_name": "Zeros"}, "epsilon": 0.001, "center": true, "scale": true, "gamma_initializer": {"config": {}, "class_name": "Ones"}, "momentum": 0.99, "axis": 3, "beta_constraint": null, "beta_regularizer": null, "name": "bn4b_branch2c", "gamma_constraint": null, "moving_variance_initializer": {"config": {}, "class_name": "Ones"}, "gamma_regularizer": null, "trainable": true, "moving_mean_initializer": {"config": {}, "class_name": "Zeros"}}, "inbound_nodes": [[["res4b_branch2c", 0, 0, {}]]], "name": "bn4b_branch2c", "class_name": "BatchNormalization"}, {"config": {"trainable": true, "name": "add_9"}, "inbound_nodes": [[["bn4b_branch2c", 0, 0, {}], ["activation_25", 0, 0, {}]]], "name": "add_9", "class_name": "Add"}, {"config": {"trainable": true, "name": "activation_28", "activation": "relu"}, "inbound_nodes": [[["add_9", 0, 0, {}]]], "name": "activation_28", "class_name": "Activation"}, {"config": {"bias_regularizer": null, "activity_regularizer": null, "bias_initializer": {"config": {}, "class_name": "Zeros"}, "kernel_regularizer": null, "bias_constraint": null, "trainable": true, "filters": 256, "activation": "linear", "strides": [1, 1], "data_format": "channels_last", "kernel_initializer": {"config": {"distribution": "uniform", "mode": "fan_avg", "scale": 1.0, "seed": null}, "class_name": "VarianceScaling"}, "name": "res4c_branch2a", "kernel_constraint": null, "padding": "valid", "use_bias": true, "dilation_rate": [1, 1], "kernel_size": [1, 1]}, "inbound_nodes": [[["activation_28", 0, 0, {}]]], "name": "res4c_branch2a", "class_name": "Conv2D"}, {"config": {"beta_initializer": {"config": {}, "class_name": "Zeros"}, "epsilon": 0.001, "center": true, "scale": true, "gamma_initializer": {"config": {}, "class_name": "Ones"}, "momentum": 0.99, "axis": 3, "beta_constraint": null, "beta_regularizer": null, "name": "bn4c_branch2a", "gamma_constraint": null, "moving_variance_initializer": {"config": {}, "class_name": "Ones"}, "gamma_regularizer": null, "trainable": true, "moving_mean_initializer": {"config": {}, "class_name": "Zeros"}}, "inbound_nodes": [[["res4c_branch2a", 0, 0, {}]]], "name": "bn4c_branch2a", "class_name": "BatchNormalization"}, {"config": {"trainable": true, "name": "activation_29", "activation": "relu"}, "inbound_nodes": [[["bn4c_branch2a", 0, 0, {}]]], "name": "activation_29", "class_name": "Activation"}, {"config": {"bias_regularizer": null, "activity_regularizer": null, "bias_initializer": {"config": {}, "class_name": "Zeros"}, "kernel_regularizer": null, "bias_constraint": null, "trainable": true, "filters": 256, "activation": "linear", "strides": [1, 1], "data_format": "channels_last", "kernel_initializer": {"config": {"distribution": "uniform", "mode": "fan_avg", "scale": 1.0, "seed": null}, "class_name": "VarianceScaling"}, "name": "res4c_branch2b", "kernel_constraint": null, "padding": "same", "use_bias": true, "dilation_rate": [1, 1], "kernel_size": [3, 3]}, "inbound_nodes": [[["activation_29", 0, 0, {}]]], "name": "res4c_branch2b", "class_name": "Conv2D"}, {"config": {"beta_initializer": {"config": {}, "class_name": "Zeros"}, "epsilon": 0.001, "center": true, "scale": true, "gamma_initializer": {"config": {}, "class_name": "Ones"}, "momentum": 0.99, "axis": 3, "beta_constraint": null, "beta_regularizer": null, "name": "bn4c_branch2b", "gamma_constraint": null, "moving_variance_initializer": {"config": {}, "class_name": "Ones"}, "gamma_regularizer": null, "trainable": true, "moving_mean_initializer": {"config": {}, "class_name": "Zeros"}}, "inbound_nodes": [[["res4c_branch2b", 0, 0, {}]]], "name": "bn4c_branch2b", "class_name": "BatchNormalization"}, {"config": {"trainable": true, "name": "activation_30", "activation": "relu"}, "inbound_nodes": [[["bn4c_branch2b", 0, 0, {}]]], "name": "activation_30", "class_name": "Activation"}, {"config": {"bias_regularizer": null, "activity_regularizer": null, "bias_initializer": {"config": {}, "class_name": "Zeros"}, "kernel_regularizer": null, "bias_constraint": null, "trainable": true, "filters": 1024, "activation": "linear", "strides": [1, 1], "data_format": "channels_last", "kernel_initializer": {"config": {"distribution": "uniform", "mode": "fan_avg", "scale": 1.0, "seed": null}, "class_name": "VarianceScaling"}, "name": "res4c_branch2c", "kernel_constraint": null, "padding": "valid", "use_bias": true, "dilation_rate": [1, 1], "kernel_size": [1, 1]}, "inbound_nodes": [[["activation_30", 0, 0, {}]]], "name": "res4c_branch2c", "class_name": "Conv2D"}, {"config": {"beta_initializer": {"config": {}, "class_name": "Zeros"}, "epsilon": 0.001, "center": true, "scale": true, "gamma_initializer": {"config": {}, "class_name": "Ones"}, "momentum": 0.99, "axis": 3, "beta_constraint": null, "beta_regularizer": null, "name": "bn4c_branch2c", "gamma_constraint": null, "moving_variance_initializer": {"config": {}, "class_name": "Ones"}, "gamma_regularizer": null, "trainable": true, "moving_mean_initializer": {"config": {}, "class_name": "Zeros"}}, "inbound_nodes": [[["res4c_branch2c", 0, 0, {}]]], "name": "bn4c_branch2c", "class_name": "BatchNormalization"}, {"config": {"trainable": true, "name": "add_10"}, "inbound_nodes": [[["bn4c_branch2c", 0, 0, {}], ["activation_28", 0, 0, {}]]], "name": "add_10", "class_name": "Add"}, {"config": {"trainable": true, "name": "activation_31", "activation": "relu"}, "inbound_nodes": [[["add_10", 0, 0, {}]]], "name": "activation_31", "class_name": "Activation"}, {"config": {"bias_regularizer": null, "activity_regularizer": null, "bias_initializer": {"config": {}, "class_name": "Zeros"}, "kernel_regularizer": null, "bias_constraint": null, "trainable": true, "filters": 256, "activation": "linear", "strides": [1, 1], "data_format": "channels_last", "kernel_initializer": {"config": {"distribution": "uniform", "mode": "fan_avg", "scale": 1.0, "seed": null}, "class_name": "VarianceScaling"}, "name": "res4d_branch2a", "kernel_constraint": null, "padding": "valid", "use_bias": true, "dilation_rate": [1, 1], "kernel_size": [1, 1]}, "inbound_nodes": [[["activation_31", 0, 0, {}]]], "name": "res4d_branch2a", "class_name": "Conv2D"}, {"config": {"beta_initializer": {"config": {}, "class_name": "Zeros"}, "epsilon": 0.001, "center": true, "scale": true, "gamma_initializer": {"config": {}, "class_name": "Ones"}, "momentum": 0.99, "axis": 3, "beta_constraint": null, "beta_regularizer": null, "name": "bn4d_branch2a", "gamma_constraint": null, "moving_variance_initializer": {"config": {}, "class_name": "Ones"}, "gamma_regularizer": null, "trainable": true, "moving_mean_initializer": {"config": {}, "class_name": "Zeros"}}, "inbound_nodes": [[["res4d_branch2a", 0, 0, {}]]], "name": "bn4d_branch2a", "class_name": "BatchNormalization"}, {"config": {"trainable": true, "name": "activation_32", "activation": "relu"}, "inbound_nodes": [[["bn4d_branch2a", 0, 0, {}]]], "name": "activation_32", "class_name": "Activation"}, {"config": {"bias_regularizer": null, "activity_regularizer": null, "bias_initializer": {"config": {}, "class_name": "Zeros"}, "kernel_regularizer": null, "bias_constraint": null, "trainable": true, "filters": 256, "activation": "linear", "strides": [1, 1], "data_format": "channels_last", "kernel_initializer": {"config": {"distribution": "uniform", "mode": "fan_avg", "scale": 1.0, "seed": null}, "class_name": "VarianceScaling"}, "name": "res4d_branch2b", "kernel_constraint": null, "padding": "same", "use_bias": true, "dilation_rate": [1, 1], "kernel_size": [3, 3]}, "inbound_nodes": [[["activation_32", 0, 0, {}]]], "name": "res4d_branch2b", "class_name": "Conv2D"}, {"config": {"beta_initializer": {"config": {}, "class_name": "Zeros"}, "epsilon": 0.001, "center": true, "scale": true, "gamma_initializer": {"config": {}, "class_name": "Ones"}, "momentum": 0.99, "axis": 3, "beta_constraint": null, "beta_regularizer": null, "name": "bn4d_branch2b", "gamma_constraint": null, "moving_variance_initializer": {"config": {}, "class_name": "Ones"}, "gamma_regularizer": null, "trainable": true, "moving_mean_initializer": {"config": {}, "class_name": "Zeros"}}, "inbound_nodes": [[["res4d_branch2b", 0, 0, {}]]], "name": "bn4d_branch2b", "class_name": "BatchNormalization"}, {"config": {"trainable": true, "name": "activation_33", "activation": "relu"}, "inbound_nodes": [[["bn4d_branch2b", 0, 0, {}]]], "name": "activation_33", "class_name": "Activation"}, {"config": {"bias_regularizer": null, "activity_regularizer": null, "bias_initializer": {"config": {}, "class_name": "Zeros"}, "kernel_regularizer": null, "bias_constraint": null, "trainable": true, "filters": 1024, "activation": "linear", "strides": [1, 1], "data_format": "channels_last", "kernel_initializer": {"config": {"distribution": "uniform", "mode": "fan_avg", "scale": 1.0, "seed": null}, "class_name": "VarianceScaling"}, "name": "res4d_branch2c", "kernel_constraint": null, "padding": "valid", "use_bias": true, "dilation_rate": [1, 1], "kernel_size": [1, 1]}, "inbound_nodes": [[["activation_33", 0, 0, {}]]], "name": "res4d_branch2c", "class_name": "Conv2D"}, {"config": {"beta_initializer": {"config": {}, "class_name": "Zeros"}, "epsilon": 0.001, "center": true, "scale": true, "gamma_initializer": {"config": {}, "class_name": "Ones"}, "momentum": 0.99, "axis": 3, "beta_constraint": null, "beta_regularizer": null, "name": "bn4d_branch2c", "gamma_constraint": null, "moving_variance_initializer": {"config": {}, "class_name": "Ones"}, "gamma_regularizer": null, "trainable": true, "moving_mean_initializer": {"config": {}, "class_name": "Zeros"}}, "inbound_nodes": [[["res4d_branch2c", 0, 0, {}]]], "name": "bn4d_branch2c", "class_name": "BatchNormalization"}, {"config": {"trainable": true, "name": "add_11"}, "inbound_nodes": [[["bn4d_branch2c", 0, 0, {}], ["activation_31", 0, 0, {}]]], "name": "add_11", "class_name": "Add"}, {"config": {"trainable": true, "name": "activation_34", "activation": "relu"}, "inbound_nodes": [[["add_11", 0, 0, {}]]], "name": "activation_34", "class_name": "Activation"}, {"config": {"bias_regularizer": null, "activity_regularizer": null, "bias_initializer": {"config": {}, "class_name": "Zeros"}, "kernel_regularizer": null, "bias_constraint": null, "trainable": true, "filters": 256, "activation": "linear", "strides": [1, 1], "data_format": "channels_last", "kernel_initializer": {"config": {"distribution": "uniform", "mode": "fan_avg", "scale": 1.0, "seed": null}, "class_name": "VarianceScaling"}, "name": "res4e_branch2a", "kernel_constraint": null, "padding": "valid", "use_bias": true, "dilation_rate": [1, 1], "kernel_size": [1, 1]}, "inbound_nodes": [[["activation_34", 0, 0, {}]]], "name": "res4e_branch2a", "class_name": "Conv2D"}, {"config": {"beta_initializer": {"config": {}, "class_name": "Zeros"}, "epsilon": 0.001, "center": true, "scale": true, "gamma_initializer": {"config": {}, "class_name": "Ones"}, "momentum": 0.99, "axis": 3, "beta_constraint": null, "beta_regularizer": null, "name": "bn4e_branch2a", "gamma_constraint": null, "moving_variance_initializer": {"config": {}, "class_name": "Ones"}, "gamma_regularizer": null, "trainable": true, "moving_mean_initializer": {"config": {}, "class_name": "Zeros"}}, "inbound_nodes": [[["res4e_branch2a", 0, 0, {}]]], "name": "bn4e_branch2a", "class_name": "BatchNormalization"}, {"config": {"trainable": true, "name": "activation_35", "activation": "relu"}, "inbound_nodes": [[["bn4e_branch2a", 0, 0, {}]]], "name": "activation_35", "class_name": "Activation"}, {"config": {"bias_regularizer": null, "activity_regularizer": null, "bias_initializer": {"config": {}, "class_name": "Zeros"}, "kernel_regularizer": null, "bias_constraint": null, "trainable": true, "filters": 256, "activation": "linear", "strides": [1, 1], "data_format": "channels_last", "kernel_initializer": {"config": {"distribution": "uniform", "mode": "fan_avg", "scale": 1.0, "seed": null}, "class_name": "VarianceScaling"}, "name": "res4e_branch2b", "kernel_constraint": null, "padding": "same", "use_bias": true, "dilation_rate": [1, 1], "kernel_size": [3, 3]}, "inbound_nodes": [[["activation_35", 0, 0, {}]]], "name": "res4e_branch2b", "class_name": "Conv2D"}, {"config": {"beta_initializer": {"config": {}, "class_name": "Zeros"}, "epsilon": 0.001, "center": true, "scale": true, "gamma_initializer": {"config": {}, "class_name": "Ones"}, "momentum": 0.99, "axis": 3, "beta_constraint": null, "beta_regularizer": null, "name": "bn4e_branch2b", "gamma_constraint": null, "moving_variance_initializer": {"config": {}, "class_name": "Ones"}, "gamma_regularizer": null, "trainable": true, "moving_mean_initializer": {"config": {}, "class_name": "Zeros"}}, "inbound_nodes": [[["res4e_branch2b", 0, 0, {}]]], "name": "bn4e_branch2b", "class_name": "BatchNormalization"}, {"config": {"trainable": true, "name": "activation_36", "activation": "relu"}, "inbound_nodes": [[["bn4e_branch2b", 0, 0, {}]]], "name": "activation_36", "class_name": "Activation"}, {"config": {"bias_regularizer": null, "activity_regularizer": null, "bias_initializer": {"config": {}, "class_name": "Zeros"}, "kernel_regularizer": null, "bias_constraint": null, "trainable": true, "filters": 1024, "activation": "linear", "strides": [1, 1], "data_format": "channels_last", "kernel_initializer": {"config": {"distribution": "uniform", "mode": "fan_avg", "scale": 1.0, "seed": null}, "class_name": "VarianceScaling"}, "name": "res4e_branch2c", "kernel_constraint": null, "padding": "valid", "use_bias": true, "dilation_rate": [1, 1], "kernel_size": [1, 1]}, "inbound_nodes": [[["activation_36", 0, 0, {}]]], "name": "res4e_branch2c", "class_name": "Conv2D"}, {"config": {"beta_initializer": {"config": {}, "class_name": "Zeros"}, "epsilon": 0.001, "center": true, "scale": true, "gamma_initializer": {"config": {}, "class_name": "Ones"}, "momentum": 0.99, "axis": 3, "beta_constraint": null, "beta_regularizer": null, "name": "bn4e_branch2c", "gamma_constraint": null, "moving_variance_initializer": {"config": {}, "class_name": "Ones"}, "gamma_regularizer": null, "trainable": true, "moving_mean_initializer": {"config": {}, "class_name": "Zeros"}}, "inbound_nodes": [[["res4e_branch2c", 0, 0, {}]]], "name": "bn4e_branch2c", "class_name": "BatchNormalization"}, {"config": {"trainable": true, "name": "add_12"}, "inbound_nodes": [[["bn4e_branch2c", 0, 0, {}], ["activation_34", 0, 0, {}]]], "name": "add_12", "class_name": "Add"}, {"config": {"trainable": true, "name": "activation_37", "activation": "relu"}, "inbound_nodes": [[["add_12", 0, 0, {}]]], "name": "activation_37", "class_name": "Activation"}, {"config": {"bias_regularizer": null, "activity_regularizer": null, "bias_initializer": {"config": {}, "class_name": "Zeros"}, "kernel_regularizer": null, "bias_constraint": null, "trainable": true, "filters": 256, "activation": "linear", "strides": [1, 1], "data_format": "channels_last", "kernel_initializer": {"config": {"distribution": "uniform", "mode": "fan_avg", "scale": 1.0, "seed": null}, "class_name": "VarianceScaling"}, "name": "res4f_branch2a", "kernel_constraint": null, "padding": "valid", "use_bias": true, "dilation_rate": [1, 1], "kernel_size": [1, 1]}, "inbound_nodes": [[["activation_37", 0, 0, {}]]], "name": "res4f_branch2a", "class_name": "Conv2D"}, {"config": {"beta_initializer": {"config": {}, "class_name": "Zeros"}, "epsilon": 0.001, "center": true, "scale": true, "gamma_initializer": {"config": {}, "class_name": "Ones"}, "momentum": 0.99, "axis": 3, "beta_constraint": null, "beta_regularizer": null, "name": "bn4f_branch2a", "gamma_constraint": null, "moving_variance_initializer": {"config": {}, "class_name": "Ones"}, "gamma_regularizer": null, "trainable": true, "moving_mean_initializer": {"config": {}, "class_name": "Zeros"}}, "inbound_nodes": [[["res4f_branch2a", 0, 0, {}]]], "name": "bn4f_branch2a", "class_name": "BatchNormalization"}, {"config": {"trainable": true, "name": "activation_38", "activation": "relu"}, "inbound_nodes": [[["bn4f_branch2a", 0, 0, {}]]], "name": "activation_38", "class_name": "Activation"}, {"config": {"bias_regularizer": null, "activity_regularizer": null, "bias_initializer": {"config": {}, "class_name": "Zeros"}, "kernel_regularizer": null, "bias_constraint": null, "trainable": true, "filters": 256, "activation": "linear", "strides": [1, 1], "data_format": "channels_last", "kernel_initializer": {"config": {"distribution": "uniform", "mode": "fan_avg", "scale": 1.0, "seed": null}, "class_name": "VarianceScaling"}, "name": "res4f_branch2b", "kernel_constraint": null, "padding": "same", "use_bias": true, "dilation_rate": [1, 1], "kernel_size": [3, 3]}, "inbound_nodes": [[["activation_38", 0, 0, {}]]], "name": "res4f_branch2b", "class_name": "Conv2D"}, {"config": {"beta_initializer": {"config": {}, "class_name": "Zeros"}, "epsilon": 0.001, "center": true, "scale": true, "gamma_initializer": {"config": {}, "class_name": "Ones"}, "momentum": 0.99, "axis": 3, "beta_constraint": null, "beta_regularizer": null, "name": "bn4f_branch2b", "gamma_constraint": null, "moving_variance_initializer": {"config": {}, "class_name": "Ones"}, "gamma_regularizer": null, "trainable": true, "moving_mean_initializer": {"config": {}, "class_name": "Zeros"}}, "inbound_nodes": [[["res4f_branch2b", 0, 0, {}]]], "name": "bn4f_branch2b", "class_name": "BatchNormalization"}, {"config": {"trainable": true, "name": "activation_39", "activation": "relu"}, "inbound_nodes": [[["bn4f_branch2b", 0, 0, {}]]], "name": "activation_39", "class_name": "Activation"}, {"config": {"bias_regularizer": null, "activity_regularizer": null, "bias_initializer": {"config": {}, "class_name": "Zeros"}, "kernel_regularizer": null, "bias_constraint": null, "trainable": true, "filters": 1024, "activation": "linear", "strides": [1, 1], "data_format": "channels_last", "kernel_initializer": {"config": {"distribution": "uniform", "mode": "fan_avg", "scale": 1.0, "seed": null}, "class_name": "VarianceScaling"}, "name": "res4f_branch2c", "kernel_constraint": null, "padding": "valid", "use_bias": true, "dilation_rate": [1, 1], "kernel_size": [1, 1]}, "inbound_nodes": [[["activation_39", 0, 0, {}]]], "name": "res4f_branch2c", "class_name": "Conv2D"}, {"config": {"beta_initializer": {"config": {}, "class_name": "Zeros"}, "epsilon": 0.001, "center": true, "scale": true, "gamma_initializer": {"config": {}, "class_name": "Ones"}, "momentum": 0.99, "axis": 3, "beta_constraint": null, "beta_regularizer": null, "name": "bn4f_branch2c", "gamma_constraint": null, "moving_variance_initializer": {"config": {}, "class_name": "Ones"}, "gamma_regularizer": null, "trainable": true, "moving_mean_initializer": {"config": {}, "class_name": "Zeros"}}, "inbound_nodes": [[["res4f_branch2c", 0, 0, {}]]], "name": "bn4f_branch2c", "class_name": "BatchNormalization"}, {"config": {"trainable": true, "name": "add_13"}, "inbound_nodes": [[["bn4f_branch2c", 0, 0, {}], ["activation_37", 0, 0, {}]]], "name": "add_13", "class_name": "Add"}, {"config": {"trainable": true, "name": "activation_40", "activation": "relu"}, "inbound_nodes": [[["add_13", 0, 0, {}]]], "name": "activation_40", "class_name": "Activation"}, {"config": {"bias_regularizer": null, "activity_regularizer": null, "bias_initializer": {"config": {}, "class_name": "Zeros"}, "kernel_regularizer": null, "bias_constraint": null, "trainable": true, "filters": 512, "activation": "linear", "strides": [2, 2], "data_format": "channels_last", "kernel_initializer": {"config": {"distribution": "uniform", "mode": "fan_avg", "scale": 1.0, "seed": null}, "class_name": "VarianceScaling"}, "name": "res5a_branch2a", "kernel_constraint": null, "padding": "valid", "use_bias": true, "dilation_rate": [1, 1], "kernel_size": [1, 1]}, "inbound_nodes": [[["activation_40", 0, 0, {}]]], "name": "res5a_branch2a", "class_name": "Conv2D"}, {"config": {"beta_initializer": {"config": {}, "class_name": "Zeros"}, "epsilon": 0.001, "center": true, "scale": true, "gamma_initializer": {"config": {}, "class_name": "Ones"}, "momentum": 0.99, "axis": 3, "beta_constraint": null, "beta_regularizer": null, "name": "bn5a_branch2a", "gamma_constraint": null, "moving_variance_initializer": {"config": {}, "class_name": "Ones"}, "gamma_regularizer": null, "trainable": true, "moving_mean_initializer": {"config": {}, "class_name": "Zeros"}}, "inbound_nodes": [[["res5a_branch2a", 0, 0, {}]]], "name": "bn5a_branch2a", "class_name": "BatchNormalization"}, {"config": {"trainable": true, "name": "activation_41", "activation": "relu"}, "inbound_nodes": [[["bn5a_branch2a", 0, 0, {}]]], "name": "activation_41", "class_name": "Activation"}, {"config": {"bias_regularizer": null, "activity_regularizer": null, "bias_initializer": {"config": {}, "class_name": "Zeros"}, "kernel_regularizer": null, "bias_constraint": null, "trainable": true, "filters": 512, "activation": "linear", "strides": [1, 1], "data_format": "channels_last", "kernel_initializer": {"config": {"distribution": "uniform", "mode": "fan_avg", "scale": 1.0, "seed": null}, "class_name": "VarianceScaling"}, "name": "res5a_branch2b", "kernel_constraint": null, "padding": "same", "use_bias": true, "dilation_rate": [1, 1], "kernel_size": [3, 3]}, "inbound_nodes": [[["activation_41", 0, 0, {}]]], "name": "res5a_branch2b", "class_name": "Conv2D"}, {"config": {"beta_initializer": {"config": {}, "class_name": "Zeros"}, "epsilon": 0.001, "center": true, "scale": true, "gamma_initializer": {"config": {}, "class_name": "Ones"}, "momentum": 0.99, "axis": 3, "beta_constraint": null, "beta_regularizer": null, "name": "bn5a_branch2b", "gamma_constraint": null, "moving_variance_initializer": {"config": {}, "class_name": "Ones"}, "gamma_regularizer": null, "trainable": true, "moving_mean_initializer": {"config": {}, "class_name": "Zeros"}}, "inbound_nodes": [[["res5a_branch2b", 0, 0, {}]]], "name": "bn5a_branch2b", "class_name": "BatchNormalization"}, {"config": {"trainable": true, "name": "activation_42", "activation": "relu"}, "inbound_nodes": [[["bn5a_branch2b", 0, 0, {}]]], "name": "activation_42", "class_name": "Activation"}, {"config": {"bias_regularizer": null, "activity_regularizer": null, "bias_initializer": {"config": {}, "class_name": "Zeros"}, "kernel_regularizer": null, "bias_constraint": null, "trainable": true, "filters": 2048, "activation": "linear", "strides": [1, 1], "data_format": "channels_last", "kernel_initializer": {"config": {"distribution": "uniform", "mode": "fan_avg", "scale": 1.0, "seed": null}, "class_name": "VarianceScaling"}, "name": "res5a_branch2c", "kernel_constraint": null, "padding": "valid", "use_bias": true, "dilation_rate": [1, 1], "kernel_size": [1, 1]}, "inbound_nodes": [[["activation_42", 0, 0, {}]]], "name": "res5a_branch2c", "class_name": "Conv2D"}, {"config": {"bias_regularizer": null, "activity_regularizer": null, "bias_initializer": {"config": {}, "class_name": "Zeros"}, "kernel_regularizer": null, "bias_constraint": null, "trainable": true, "filters": 2048, "activation": "linear", "strides": [2, 2], "data_format": "channels_last", "kernel_initializer": {"config": {"distribution": "uniform", "mode": "fan_avg", "scale": 1.0, "seed": null}, "class_name": "VarianceScaling"}, "name": "res5a_branch1", "kernel_constraint": null, "padding": "valid", "use_bias": true, "dilation_rate": [1, 1], "kernel_size": [1, 1]}, "inbound_nodes": [[["activation_40", 0, 0, {}]]], "name": "res5a_branch1", "class_name": "Conv2D"}, {"config": {"beta_initializer": {"config": {}, "class_name": "Zeros"}, "epsilon": 0.001, "center": true, "scale": true, "gamma_initializer": {"config": {}, "class_name": "Ones"}, "momentum": 0.99, "axis": 3, "beta_constraint": null, "beta_regularizer": null, "name": "bn5a_branch2c", "gamma_constraint": null, "moving_variance_initializer": {"config": {}, "class_name": "Ones"}, "gamma_regularizer": null, "trainable": true, "moving_mean_initializer": {"config": {}, "class_name": "Zeros"}}, "inbound_nodes": [[["res5a_branch2c", 0, 0, {}]]], "name": "bn5a_branch2c", "class_name": "BatchNormalization"}, {"config": {"beta_initializer": {"config": {}, "class_name": "Zeros"}, "epsilon": 0.001, "center": true, "scale": true, "gamma_initializer": {"config": {}, "class_name": "Ones"}, "momentum": 0.99, "axis": 3, "beta_constraint": null, "beta_regularizer": null, "name": "bn5a_branch1", "gamma_constraint": null, "moving_variance_initializer": {"config": {}, "class_name": "Ones"}, "gamma_regularizer": null, "trainable": true, "moving_mean_initializer": {"config": {}, "class_name": "Zeros"}}, "inbound_nodes": [[["res5a_branch1", 0, 0, {}]]], "name": "bn5a_branch1", "class_name": "BatchNormalization"}, {"config": {"trainable": true, "name": "add_14"}, "inbound_nodes": [[["bn5a_branch2c", 0, 0, {}], ["bn5a_branch1", 0, 0, {}]]], "name": "add_14", "class_name": "Add"}, {"config": {"trainable": true, "name": "activation_43", "activation": "relu"}, "inbound_nodes": [[["add_14", 0, 0, {}]]], "name": "activation_43", "class_name": "Activation"}, {"config": {"bias_regularizer": null, "activity_regularizer": null, "bias_initializer": {"config": {}, "class_name": "Zeros"}, "kernel_regularizer": null, "bias_constraint": null, "trainable": true, "filters": 512, "activation": "linear", "strides": [1, 1], "data_format": "channels_last", "kernel_initializer": {"config": {"distribution": "uniform", "mode": "fan_avg", "scale": 1.0, "seed": null}, "class_name": "VarianceScaling"}, "name": "res5b_branch2a", "kernel_constraint": null, "padding": "valid", "use_bias": true, "dilation_rate": [1, 1], "kernel_size": [1, 1]}, "inbound_nodes": [[["activation_43", 0, 0, {}]]], "name": "res5b_branch2a", "class_name": "Conv2D"}, {"config": {"beta_initializer": {"config": {}, "class_name": "Zeros"}, "epsilon": 0.001, "center": true, "scale": true, "gamma_initializer": {"config": {}, "class_name": "Ones"}, "momentum": 0.99, "axis": 3, "beta_constraint": null, "beta_regularizer": null, "name": "bn5b_branch2a", "gamma_constraint": null, "moving_variance_initializer": {"config": {}, "class_name": "Ones"}, "gamma_regularizer": null, "trainable": true, "moving_mean_initializer": {"config": {}, "class_name": "Zeros"}}, "inbound_nodes": [[["res5b_branch2a", 0, 0, {}]]], "name": "bn5b_branch2a", "class_name": "BatchNormalization"}, {"config": {"trainable": true, "name": "activation_44", "activation": "relu"}, "inbound_nodes": [[["bn5b_branch2a", 0, 0, {}]]], "name": "activation_44", "class_name": "Activation"}, {"config": {"bias_regularizer": null, "activity_regularizer": null, "bias_initializer": {"config": {}, "class_name": "Zeros"}, "kernel_regularizer": null, "bias_constraint": null, "trainable": true, "filters": 512, "activation": "linear", "strides": [1, 1], "data_format": "channels_last", "kernel_initializer": {"config": {"distribution": "uniform", "mode": "fan_avg", "scale": 1.0, "seed": null}, "class_name": "VarianceScaling"}, "name": "res5b_branch2b", "kernel_constraint": null, "padding": "same", "use_bias": true, "dilation_rate": [1, 1], "kernel_size": [3, 3]}, "inbound_nodes": [[["activation_44", 0, 0, {}]]], "name": "res5b_branch2b", "class_name": "Conv2D"}, {"config": {"beta_initializer": {"config": {}, "class_name": "Zeros"}, "epsilon": 0.001, "center": true, "scale": true, "gamma_initializer": {"config": {}, "class_name": "Ones"}, "momentum": 0.99, "axis": 3, "beta_constraint": null, "beta_regularizer": null, "name": "bn5b_branch2b", "gamma_constraint": null, "moving_variance_initializer": {"config": {}, "class_name": "Ones"}, "gamma_regularizer": null, "trainable": true, "moving_mean_initializer": {"config": {}, "class_name": "Zeros"}}, "inbound_nodes": [[["res5b_branch2b", 0, 0, {}]]], "name": "bn5b_branch2b", "class_name": "BatchNormalization"}, {"config": {"trainable": true, "name": "activation_45", "activation": "relu"}, "inbound_nodes": [[["bn5b_branch2b", 0, 0, {}]]], "name": "activation_45", "class_name": "Activation"}, {"config": {"bias_regularizer": null, "activity_regularizer": null, "bias_initializer": {"config": {}, "class_name": "Zeros"}, "kernel_regularizer": null, "bias_constraint": null, "trainable": true, "filters": 2048, "activation": "linear", "strides": [1, 1], "data_format": "channels_last", "kernel_initializer": {"config": {"distribution": "uniform", "mode": "fan_avg", "scale": 1.0, "seed": null}, "class_name": "VarianceScaling"}, "name": "res5b_branch2c", "kernel_constraint": null, "padding": "valid", "use_bias": true, "dilation_rate": [1, 1], "kernel_size": [1, 1]}, "inbound_nodes": [[["activation_45", 0, 0, {}]]], "name": "res5b_branch2c", "class_name": "Conv2D"}, {"config": {"beta_initializer": {"config": {}, "class_name": "Zeros"}, "epsilon": 0.001, "center": true, "scale": true, "gamma_initializer": {"config": {}, "class_name": "Ones"}, "momentum": 0.99, "axis": 3, "beta_constraint": null, "beta_regularizer": null, "name": "bn5b_branch2c", "gamma_constraint": null, "moving_variance_initializer": {"config": {}, "class_name": "Ones"}, "gamma_regularizer": null, "trainable": true, "moving_mean_initializer": {"config": {}, "class_name": "Zeros"}}, "inbound_nodes": [[["res5b_branch2c", 0, 0, {}]]], "name": "bn5b_branch2c", "class_name": "BatchNormalization"}, {"config": {"trainable": true, "name": "add_15"}, "inbound_nodes": [[["bn5b_branch2c", 0, 0, {}], ["activation_43", 0, 0, {}]]], "name": "add_15", "class_name": "Add"}, {"config": {"trainable": true, "name": "activation_46", "activation": "relu"}, "inbound_nodes": [[["add_15", 0, 0, {}]]], "name": "activation_46", "class_name": "Activation"}, {"config": {"bias_regularizer": null, "activity_regularizer": null, "bias_initializer": {"config": {}, "class_name": "Zeros"}, "kernel_regularizer": null, "bias_constraint": null, "trainable": true, "filters": 512, "activation": "linear", "strides": [1, 1], "data_format": "channels_last", "kernel_initializer": {"config": {"distribution": "uniform", "mode": "fan_avg", "scale": 1.0, "seed": null}, "class_name": "VarianceScaling"}, "name": "res5c_branch2a", "kernel_constraint": null, "padding": "valid", "use_bias": true, "dilation_rate": [1, 1], "kernel_size": [1, 1]}, "inbound_nodes": [[["activation_46", 0, 0, {}]]], "name": "res5c_branch2a", "class_name": "Conv2D"}, {"config": {"beta_initializer": {"config": {}, "class_name": "Zeros"}, "epsilon": 0.001, "center": true, "scale": true, "gamma_initializer": {"config": {}, "class_name": "Ones"}, "momentum": 0.99, "axis": 3, "beta_constraint": null, "beta_regularizer": null, "name": "bn5c_branch2a", "gamma_constraint": null, "moving_variance_initializer": {"config": {}, "class_name": "Ones"}, "gamma_regularizer": null, "trainable": true, "moving_mean_initializer": {"config": {}, "class_name": "Zeros"}}, "inbound_nodes": [[["res5c_branch2a", 0, 0, {}]]], "name": "bn5c_branch2a", "class_name": "BatchNormalization"}, {"config": {"trainable": true, "name": "activation_47", "activation": "relu"}, "inbound_nodes": [[["bn5c_branch2a", 0, 0, {}]]], "name": "activation_47", "class_name": "Activation"}, {"config": {"bias_regularizer": null, "activity_regularizer": null, "bias_initializer": {"config": {}, "class_name": "Zeros"}, "kernel_regularizer": null, "bias_constraint": null, "trainable": true, "filters": 512, "activation": "linear", "strides": [1, 1], "data_format": "channels_last", "kernel_initializer": {"config": {"distribution": "uniform", "mode": "fan_avg", "scale": 1.0, "seed": null}, "class_name": "VarianceScaling"}, "name": "res5c_branch2b", "kernel_constraint": null, "padding": "same", "use_bias": true, "dilation_rate": [1, 1], "kernel_size": [3, 3]}, "inbound_nodes": [[["activation_47", 0, 0, {}]]], "name": "res5c_branch2b", "class_name": "Conv2D"}, {"config": {"beta_initializer": {"config": {}, "class_name": "Zeros"}, "epsilon": 0.001, "center": true, "scale": true, "gamma_initializer": {"config": {}, "class_name": "Ones"}, "momentum": 0.99, "axis": 3, "beta_constraint": null, "beta_regularizer": null, "name": "bn5c_branch2b", "gamma_constraint": null, "moving_variance_initializer": {"config": {}, "class_name": "Ones"}, "gamma_regularizer": null, "trainable": true, "moving_mean_initializer": {"config": {}, "class_name": "Zeros"}}, "inbound_nodes": [[["res5c_branch2b", 0, 0, {}]]], "name": "bn5c_branch2b", "class_name": "BatchNormalization"}, {"config": {"trainable": true, "name": "activation_48", "activation": "relu"}, "inbound_nodes": [[["bn5c_branch2b", 0, 0, {}]]], "name": "activation_48", "class_name": "Activation"}, {"config": {"bias_regularizer": null, "activity_regularizer": null, "bias_initializer": {"config": {}, "class_name": "Zeros"}, "kernel_regularizer": null, "bias_constraint": null, "trainable": true, "filters": 2048, "activation": "linear", "strides": [1, 1], "data_format": "channels_last", "kernel_initializer": {"config": {"distribution": "uniform", "mode": "fan_avg", "scale": 1.0, "seed": null}, "class_name": "VarianceScaling"}, "name": "res5c_branch2c", "kernel_constraint": null, "padding": "valid", "use_bias": true, "dilation_rate": [1, 1], "kernel_size": [1, 1]}, "inbound_nodes": [[["activation_48", 0, 0, {}]]], "name": "res5c_branch2c", "class_name": "Conv2D"}, {"config": {"beta_initializer": {"config": {}, "class_name": "Zeros"}, "epsilon": 0.001, "center": true, "scale": true, "gamma_initializer": {"config": {}, "class_name": "Ones"}, "momentum": 0.99, "axis": 3, "beta_constraint": null, "beta_regularizer": null, "name": "bn5c_branch2c", "gamma_constraint": null, "moving_variance_initializer": {"config": {}, "class_name": "Ones"}, "gamma_regularizer": null, "trainable": true, "moving_mean_initializer": {"config": {}, "class_name": "Zeros"}}, "inbound_nodes": [[["res5c_branch2c", 0, 0, {}]]], "name": "bn5c_branch2c", "class_name": "BatchNormalization"}, {"config": {"trainable": true, "name": "add_16"}, "inbound_nodes": [[["bn5c_branch2c", 0, 0, {}], ["activation_46", 0, 0, {}]]], "name": "add_16", "class_name": "Add"}, {"config": {"trainable": true, "name": "activation_49", "activation": "relu"}, "inbound_nodes": [[["add_16", 0, 0, {}]]], "name": "activation_49", "class_name": "Activation"}, {"config": {"strides": [7, 7], "data_format": "channels_last", "name": "avg_pool", "padding": "valid", "pool_size": [7, 7], "trainable": true}, "inbound_nodes": [[["activation_49", 0, 0, {}]]], "name": "avg_pool", "class_name": "AveragePooling2D"}, {"config": {"trainable": true, "name": "flatten_1"}, "inbound_nodes": [[["avg_pool", 0, 0, {}]]], "name": "flatten_1", "class_name": "Flatten"}, {"config": {"bias_regularizer": null, "activity_regularizer": null, "bias_initializer": {"config": {}, "class_name": "Zeros"}, "kernel_regularizer": null, "bias_constraint": null, "kernel_constraint": null, "units": 1000, "activation": "softmax", "name": "fc1000", "use_bias": true, "trainable": true, "kernel_initializer": {"config": {"distribution": "uniform", "mode": "fan_avg", "scale": 1.0, "seed": null}, "class_name": "VarianceScaling"}}, "inbound_nodes": [[["flatten_1", 0, 0, {}]]], "name": "fc1000", "class_name": "Dense"}, {"config": {"trainable": true, "name": "activation_50", "activation": "relu"}, "inbound_nodes": [[["fc1000", 0, 0, {}]]], "name": "activation_50", "class_name": "Activation"}, {"config": {"trainable": true, "name": "dropout_1", "rate": 0.5}, "inbound_nodes": [[["activation_50", 0, 0, {}]]], "name": "dropout_1", "class_name": "Dropout"}, {"config": {"bias_regularizer": null, "activity_regularizer": null, "bias_initializer": {"config": {}, "class_name": "Zeros"}, "kernel_regularizer": null, "bias_constraint": null, "kernel_constraint": null, "units": 7, "activation": "linear", "name": "dense_1", "use_bias": true, "trainable": true, "kernel_initializer": {"config": {"distribution": "uniform", "mode": "fan_avg", "scale": 1.0, "seed": null}, "class_name": "VarianceScaling"}}, "inbound_nodes": [[["dropout_1", 0, 0, {}]]], "name": "dense_1", "class_name": "Dense"}, {"config": {"trainable": true, "name": "activation_51", "activation": "softmax"}, "inbound_nodes": [[["dense_1", 0, 0, {}]]], "name": "activation_51", "class_name": "Activation"}], "name": "model_1", "input_layers": [["input_1", 0, 0]]}, "keras_version": "2.0.2", "class_name": "Model"}